mlruns/0/94168cc552aa4fe888cf4d2f9951b09f/artifacts/model/data/model.pth (torch, 24052 bytes, 5 tensors)

weight f4 [60, 15]
-0.12589519 -0.19319677 0.3480003 -0.016486786 0.17019595 0.23731443 0.0069287205 -0.09312275
0.14089647 -0.08857124 -0.08901445 -0.36849394 -0.6196899 -0.04352186 0.25514632 -0.102490805
-0.43305466 0.029567853 -0.17033632 0.2674533 0.048281066 -0.08703445 0.40086493 -0.21973169
-0.20780768 -0.15268959 -0.0054450547 -0.18048173 0.09601769 -0.10935235 -0.3779556 -0.083337374
0.4476947 -0.35649386 -0.21066236 0.26237306 -0.10404288 -0.04968565 0.019169793 0.09861936
-0.13320251 0.041196704 -0.14341903 -0.43283004 0.05297171 -0.06004876 0.2556135 -0.051221393
-0.0010581553 -0.1815275 0.17177388 0.18871741 0.27897853 0.38071573 -0.364246 0.28799874
-0.42226323 0.12829222 0.3278165 -0.021146124 0.046707716 -0.024659885 0.10647178 -0.24244739
-0.42947787 -0.16409539 -0.15530607 -0.25797674 -0.19381662 -0.1985481 0.02918626 0.28218713
0.38471824 0.5418518 -0.043864183 -0.3497294 0.06154678 0.070011005 0.2771829 0.048449058
0.18774384 -0.06245452 -0.15613508 0.19138788 0.1732558 0.42710316 0.18499218 -0.31154737
0.5575125 0.23603494 -0.017525582 -0.38886765 -0.052382395 0.34378746 0.0024572639 -0.45868626
-0.21031056 0.23827411 0.016514359 0.12646018 0.07842703 0.1739963 0.23253587 -0.27176255
-0.04183093 -0.47605047 -0.25937894 -0.31544083 0.092053294 0.13788705 0.10746805 -0.21835978
-0.0561091 0.101877175 0.39806384 -0.20863028 0.18326612 0.19558308 0.077428184 0.1341158
-0.16078563 -0.27431595 -0.06437561 -0.105519325 0.26683778 -0.092221424 0.019445833 0.10810858
-0.028846066 -0.13363668 0.3728892 0.24751817 -0.08612281 0.19153926 0.12944563 -0.1705578
0.14927275 -0.16246627 -0.17380871 -0.054855913 -0.22731838 -0.21204697 0.4013613 0.27211463
-0.14065911 -0.02476741 -0.13344598 -0.492534 -0.07247959 -0.19691065 -0.06795124 0.08213191
-0.14011054 -0.378243 -0.291472 0.35455954 -0.2958906 -0.1867297 -0.11386698 -0.0076990826
-0.1588863 -0.25540406 0.0031374963 0.099164404 0.3402518 -0.05680127 0.022233186 0.06698667
0.27579436 -0.28668427 -0.23709612 0.12061478 0.25319612 0.27135357 0.33663613 -0.23521961
-0.024556605 0.26982918 0.10891571 0.07465201 0.08217006 0.11596028 -0.19391693 0.0020889435
-0.29216415 -0.020836316 0.19905514 -0.10516868 -0.10941959 -0.4910393 0.09569878 0.3446292
-0.14019956 -0.23242651 0.5688649 0.39563555 0.053709894 0.25430235 0.4352236 0.30070296
-0.34153414 0.043375228 -0.36556476 -0.006183712 -0.0021812252 0.33725518 0.26725227 0.042945083
0.14867777 -0.14469391 0.35153767 -0.13554214 0.08755261 -0.05429747 -0.10191451 -0.09272969
-0.30874416 -0.15311146 -0.015373004 -0.07494742 -0.104489096 -0.047642805 -0.04679154 0.4271782
0.06765631 -0.3210079 -0.16469742 0.36423913 -0.28777403 -0.059252888 -0.044126056 -0.11180912
-0.0011251632 0.26761335 0.065480724 -0.2972522 -0.5992056 0.016493633 0.37676 0.22944838
-0.0377412 -0.3598888 0.1722567 0.15833133 -0.055618327 -0.17621298 -0.13849887 -0.1417194
-0.2728296 -0.31004995 -0.25755516 0.12529597 -0.17492738 -0.04062699 0.1499328 -0.062312942
00000000: abea 00be 60d5 45be 182d b23e 4c0f 87bc
00000010: d947 2e3e 8e02 733e 520a e33b 24b7 bebd
00000020: 2a47 103e d764 b5bd 354d b6bd 3dab bcbe
00000030: ffa3 1ebf fa43 32bd 8aa2 823e b3e6 d1bd
00000040: 57b9 ddbe 4838 f23c a56c 2ebe a4ef 883e
00000050: 5ec2 453d 1e3f b2bd 2b3e cd3e 5801 61be
00000060: 89cb 54be a95a 1cbe 6e6c b2bb 34d0 38be
00000070: eca4 c43d 20f4 dfbd 6583 c1be c9ac aabd
00000080: 3d38 e53e 5d86 b6be e0b7 57be c355 863e
00000090: 6f14 d5bd 2e83 4bbd f809 9d3c f2f8 c93d
000000a0: 3d66 08be e0bd 283d 70dc 12be e69b ddbe
000000b0: ddf8 583d b0f5 75bd c6df 823e 86cd 51bd
000000c0: cdb1 8aba 58e2 39be 7ee5 2f3e 233f 413e
000000d0: 46d6 8e3e 2ced c23e 747e babe 9274 933e
000000e0: e332 d8be 095f 033e 90d7 a73e a33a adbc
000000f0: 9750 3f3d 8703 cabc e00d da3d 2144 78be
00000100: 86e4 dbbe 9f08 28be 8e08 1fbe 8715 84be
00000110: dd77 46be 3150 4bbe 0618 ef3c d57a 903e
00000120: caf9 c43e cdb6 0a3f eeaa 33bd bb0f b3be
00000130: 7a18 7c3d ee61 8f3d ebea 8d3e 8572 463d
00000140: ec3f 403e 50d0 7fbd e0e1 1fbe 2ffb 433e
00000150: f869 313e 44ad da3e 976e 3d3e 2383 9fbe
00000160: 24b9 0e3f 25b3 713e cf91 8fbc a919 c7be
00000170: ec8e 56bd e904 b03e 0c0a 213b edd8 eabe
00000180: a75b 57be 21fe 733e 1f49 873c c77e 013e
00000190: 5a9e a03d 162c 323e e21d 6e3e 7624 8bbe
000001a0: e956 2bbd e3bc f3be 51cd 84be 7681 a1be
000001b0: 7086 bc3d 4332 0d3e 3618 dc3d b599 5fbe
000001c0: a8d2 65bd fba4 d03d 06cf cb3e 2da3 55be
000001d0: 1daa 3b3e ee46 483e ab92 9e3d a755 093e
000001e0: fda4 24be 2473 8cbe 5cd7 83bd 841a d8bd
000001f0: f69e 883e 96de bcbd de4c 9f3c 0868 dd3d
00000200: 964e ecbc 0ed8 08be 55eb be3e 6775 7d3e
00000210: 2861 b0bd de22 443e 658d 043e b4a6 2ebe
00000220: f5da 183e 8f5d 26be e9fa 31be 98b0 60bd
00000230: 26c6 68be d722 59be 3a7f cd3e 9c52 8b3e
00000240: f108 10be 06e5 cabc 10a6 08be 6b2d fcbe
00000250: 2e70 94bd f2a2 49be 052a 8bbd c634 a83d
00000260: 2379 0fbe 11a9 c1be d13b 95be d488 b53e
00000270: f97e 97be 1236 3fbe 1733 e9bd 9648 fcbb
00000280: 17b3 22be 52c4 82be 749e 4d3b b516 cb3d
00000290: 7c35 ae3e 73a8 68bd 5f22 b63c 4f30 893d
000002a0: eb34 8d3e 48c8 92be 53c9 72be e204 f73d
000002b0: eca2 813e dbee 8a3e 925b ac3e 69dd 70be
000002c0: ef2a c9bc 0d27 8a3e 330f df3d 27e3 983d
000002d0: c748 a83d 957c ed3d 2992 46be a8e6 083b
000002e0: 8a96 95be ecb0 aabc 1cd5 4b3e ad62 d7bd
000002f0: 6117 e0bd 8169 fbbe b9fd c33d 3d73 b03e
00000300: 7990 0fbe 3701 6ebe 21a1 113f be90 ca3e
00000310: e8fe 5b3d eb33 823e a1d5 de3e bdf5 993e
00000320: 90dd aebe 39aa 313d 4e2b bbbe bca0 cabb
00000330: e3f2 0ebb b6ac ac3e 4ad5 883e 2fe7 2f3d
00000340: fc3e 183e a42a 14be bffc b33e 8fcb 0abe
00000350: c84e b33d 0667 5ebd 8eb8 d0bd 10e9 bdbd
00000360: b713 9ebe 40c9 1cbe 0ddf 7bbc 087e 99bd
00000370: 61fe d5bd 1a25 43bd 7ca8 3fbd 1ab7 da3e
00000380: 648f 8a3d 265b a4be 71a6 28be 8d7d ba3e
00000390: 1e57 93be 28b3 72bd 86bd 34bd 2efc e4bd
000003a0: 367a 93ba 9e04 893e c21a 863d 7131 98be
000003b0: 8a65 19bf a81d 873c b0e6 c03e 84f4 6a3e
000003c0: 8496 1abd 5843 b8be 0f64 303e 9c21 223e
000003d0: 0bd0 63bd 2d71 34be a6d2 0dbe e41e 11be
000003e0: 52b0 8bbe debe 9ebe 45de 83be 964d 003e
000003f0: 2a20 33be 7d68 26bd fc87 193e db3b 7fbd

bias f4 [60]
-0.09299045 -0.2281812 0.08108086 0.056224488 -0.26116732 0.017425187 0.12989862 0.18554623
0.34706894 0.19912985 0.16405883 -0.28230843 0.053215835 -0.090266906 0.1946208 0.0031528894
0.2075204 0.030758372 0.10255948 0.21669509 0.055527307 0.12052158 0.17292173 -0.015177893
0.02652013 0.08745849 -0.06065999 -0.39211017 -0.0020606222 -0.16371731 0.24497062 -0.13402162
-0.20472337 -0.39055178 -0.19333203 0.10059097 -0.35841337 0.27163258 -0.30541468 0.3119265
0.13010979 -0.12331377 -0.20424677 0.3755407 -0.25139087 0.05828553 0.084035754 -0.04779969
-0.0330353 0.1338062 -0.07314142 0.14118958 -0.04511957 0.2986385 -0.0701791 0.14886463
0.0016784379 0.27411187 0.19475393 -0.14351545
00000000: c771 bebd 55a8 69be b90d a63d a64b 663d
00000010: b9b7 85be 44bf 8e3c 2504 053e d5ff 3d3e
00000020: 05b3 b13e b2e8 4b3e 0aff 273e bb8a 90be
00000030: d9f8 593d dbdd b8bd ad4a 473e b5a0 4e3b
00000040: 3a80 543e fbf8 fb3c b40a d23d 51e5 5d3e
00000050: 9a70 633d 05d4 f63d 6512 313e b3ac 78bc
00000060: be40 d93c 701d b33d 9c76 78bd aac2 c8be
00000070: 810b 07bb 83a5 27be 94d9 7a3e f73c 09be
00000080: 01a3 51be 67f6 c7be d5f8 45be a302 ce3d
00000090: f581 b7be 6d13 8b3e 505f 9cbe d5b4 9f3e
000000a0: 803b 053e ee8b fcbd 1126 51be df46 c03e
000000b0: 4eb6 80be cfbc 6e3d f01a ac3d 9cc9 43bd
000000c0: 0650 07bd 7e04 093e 2bcb 95bd 0094 103e
000000d0: 4ccf 38bd 25e7 983e 0fba 8fbd f86f 183e
000000e0: 08ff db3a 6458 8c3e 936d 473e b7f5 12be

weight f4 [60, 60]
0.08896256 0.45437604 0.0048576463 0.18602458 0.27332652 -0.29875985 0.3159296 -0.10307009
0.31769338 0.008227025 0.19896807 -0.26113653 0.09430152 0.04807378 0.050059233 -0.21314967
-0.20813687 0.025369573 -0.9861897 0.06970991 0.22970064 0.24701175 -0.3601813 -0.26201835
-0.290293 -0.35803923 -0.071910694 -0.12830494 -0.2282266 -0.08112788 0.07427211 0.18498671
0.41690588 -0.75169176 -0.22926627 -0.015187829 0.36444026 0.16247174 0.014673463 -0.26291642
0.3411103 -0.26359725 -0.2949713 -0.22070017 -0.13548677 -0.080565356 -0.2634631 0.089766175
-0.04813222 -0.2216168 -0.31069586 0.099372484 -0.16577926 -0.16521868 -0.0949003 -0.07135789
-0.0234357 0.11075799 -0.2228029 0.34596223 -0.12556517 0.2258399 0.045972716 -0.32649392
-0.2613607 -0.48965454 0.23189352 0.25666153 -0.2771163 0.004477836 -0.42243138 0.4730148
-0.1789873 0.05792687 -0.07634462 -0.47145155 0.07771323 -0.27921677 -0.059848484 -0.62889594
-0.5239846 -0.18416548 0.06665655 -0.62299114 0.24093458 -0.045949243 0.09848223 0.21101402
-0.05615536 0.19443311 0.18911764 0.33107698 -0.36280164 -0.040789288 -0.08241964 -0.44448042
0.21997079 -0.21401851 0.08072431 0.2262303 0.2018558 -0.04774311 -0.09784307 -0.28730848
-0.28013873 -0.40081874 0.012460198 -0.12408756 -0.03702383 -0.12627052 0.26974872 0.076289654
-0.4033527 -0.25434303 0.5328276 -0.034719042 -0.41133335 -0.90914965 0.24386834 0.15009396
-0.35368705 0.287993 -0.13521469 0.24082096 -0.39713928 0.1073285 -0.07343623 0.069770336
-0.031949516 0.30696225 -0.042549893 -0.00541272 0.09347987 -0.65764725 -0.16252361 -0.12030699
-0.25224963 -0.086638995 -0.054608338 0.18146257 0.006529118 0.114189506 -0.15006495 -0.010430398
-0.020183934 -0.18314546 -0.105833106 -0.10579335 0.22776395 -0.5335379 0.062455215 -0.0047922526
0.17616484 -0.22520237 0.06615293 0.065351464 -0.35383388 0.22783959 0.41452795 0.032325108
-0.058890626 -0.11560683 -0.09873667 -0.3604913 0.08505632 -0.08419296 -0.013875249 0.26946938
0.2837001 -0.022832392 0.16472541 -0.21713345 0.25179726 -0.0029447777 0.16250053 0.23807617
-0.44159913 0.015725639 0.23691979 -0.020448187 0.14093897 -0.19494629 -0.040107872 -0.097795665
0.13575141 -0.1401555 0.12972903 0.09356609 0.07348961 -0.1844258 0.14019999 0.17600155
0.1981233 0.04935652 -0.08463238 0.051905166 -0.022826593 0.01311899 0.04177528 0.035734173
0.103169486 -0.09707947 0.03558018 -0.06967711 -0.052593354 -0.019465309 0.03703736 0.2166278
0.1349533 0.21968512 0.07931592 -0.01541036 -0.009825209 0.12071983 0.051905412 -0.14125636
0.3400342 -0.07581197 -0.03680207 -0.000994764 0.1182626 -0.0076385355 -0.03704705 -0.031824928
0.10746684 0.19365124 0.1291842 -0.10952286 -0.10263771 0.066060916 0.033815295 0.08054125
-0.03174717 -0.06580678 -0.028988877 -0.0049446463 0.011786548 0.13426298 0.05885201 -0.06828306
-0.12546957 0.2594146 -0.0042989594 0.20877248 -0.12035107 0.23194589 -0.08896496 -0.19490533
0.022158938 0.2524574 -0.02715252 -0.28354716 0.030743634 -0.10179856 0.07736996 0.15106311
00000000: 0132 b63d faa3 e83e e42c 9f3b 3a7d 3e3e
00000010: 74f1 8b3e 0df7 98be 86c1 a13e 6916 d3bd
00000020: b5a8 a23e a5ca 063c 49be 4b3e b0b3 85be
00000030: 2821 c13d 03e9 443d e90a 4d3d e843 5abe
00000040: d521 55be dad3 cf3c ee76 7cbf 12c4 8e3d
00000050: a536 6b3e a6f0 7c3e af69 b8be 4527 86be
00000060: 49a1 94be eb50 b7be ea45 93bd 5f62 03be
00000070: 3cb4 69be 6026 a6bd fa1b 983d 286d 3d3e
00000080: b074 d53e df6e 40bf c7c4 6abe 5fd6 78bc
00000090: ea97 ba3e fe5e 263e f768 703c fb9c 86be
000000a0: 02a6 ae3e 38f6 86be 7a06 97be 3aff 61be
000000b0: 0bbd 0abe 73ff a4bd a3e4 86be 54d7 b73d
000000c0: 4a26 45bd 84ef 62be 8713 9fbe cd83 cb3d
000000d0: 0ac2 29be 162f 29be 175b c2bd 1624 92bd
000000e0: 3afc bfbc 16d5 e23d 7226 64be f621 b13e
000000f0: 2894 00be 9342 673e e34d 3c3d 362a a7be
00000100: 12d1 85be 00b4 fabe 7f75 6d3e 2469 833e
00000110: 30e2 8dbe d0ba 923b ed48 d8be ff2e f23e
00000120: 7248 37be ba44 6d3d 915a 9cbd 1962 f1be
00000130: 1d28 9f3d 80f5 8ebe af23 75bd 53ff 20bf
00000140: db23 06bf e095 3cbe 3b83 883d 597c 1fbf
00000150: 8eb7 763e 4635 3cbd 0db1 c93d 0f14 583e
00000160: 2a03 66bd 7919 473e 0ea8 413e ec82 a93e
00000170: 23c1 b9be ab12 27bd a1cb a8bd f092 e3be
00000180: 0640 613e ab27 5bbe c952 a53d eaa8 673e
00000190: 49b3 4e3e 488e 43bd f361 c8bd 191a 93be
000001a0: 586e 8fbe 1d38 cdbe dc25 4c3c 9e21 febd
000001b0: 4da6 17bd 0f4d 01be 811c 8a3e c03d 9c3d
000001c0: 3f84 cebe 4039 82be 6467 083f 8e35 0ebd
000001d0: 499a d2be 08be 68bf 9fb8 793e 3bb2 193e
000001e0: 7816 b5be d273 933e b875 0abe c599 763e
000001f0: d755 cbbe 0bcf db3d bc65 96bd c0e3 8e3d
00000200: 7fdd 02bd 282a 9d3e cc48 2ebd 305d b1bb
00000210: 6072 bf3d 925b 28bf 976c 26be 8363 f6bd
00000220: dd26 81be c96f b1bd feac 5fbd 53d1 393e
00000230: 36f2 d53b 30dc e93d a0aa 19be 43e4 2abc
00000240: c758 a5bc 7c8a 3bbe 07bf d8bd 2faa d8bd
00000250: f43a 693e f195 08bf 0ad1 7f3d 5408 9dbb
00000260: 8e64 343e 739b 66be 307b 873d fdd6 853d
00000270: b729 b5be c84e 693e 023d d43e 5567 043d
00000280: 4c37 71bd 46c3 ecbd 7436 cabd 5192 b8be
00000290: 0232 ae3d 5c6d acbd 0355 63bc e4f7 893e
000002a0: 2441 913e ff0a bbbc c7ad 283e 3b58 5ebe
000002b0: 92eb 803e 2cfd 40bb 8a66 263e 3dca 733e
000002c0: 4819 e2be 0ed3 803c 1a9b 723e f582 a7bc
000002d0: 4e52 103e 00a0 47be 2748 24bd 1849 c8bd
000002e0: 6b02 0b3e ec84 0fbe b0d7 043e 949f bf3d
000002f0: b881 963d 1eda 3cbe 9690 0f3e c039 343e
00000300: d6e0 4a3e 102a 4a3d be53 adbd 839a 543d
00000310: d6fe babc 08f1 563c 8e1c 2b3d ff5d 123d
00000320: 864a d33d 9ad1 c6bd 86bc 113d dfb2 8ebd
00000330: 216c 57bd b675 9fbc 7db4 173d aed3 5d3e
00000340: 3331 0a3e 23f5 603e 6370 a23d bc7b 7cbc
00000350: eaf9 20bc f53b f73d c59a 543d 82a5 10be
00000360: f618 ae3e 4e43 9bbd c4bd 16bd be62 82ba
00000370: a933 f23d ae4c fabb a6be 17bd db5a 02bd
00000380: 9317 dc3d 834c 463e dd48 043e 854d e0bd
00000390: b833 d2bd f24a 873d e881 0a3d d0f2 a43d
000003a0: 5209 02bd b4c5 86bd 157a edbc b306 a2bb
000003b0: 5e1c 413c 3c7c 093e ce0e 713d fdd7 8bbd
000003c0: 187b 00be fed1 843e 49de 8cbb 74c8 553e
000003d0: 9f7a f6bd 3983 6d3e 4333 b6bd 4395 47be
000003e0: a986 b53c 1942 813e f66e debc 182d 91be
000003f0: 13da fb3c c37b d0bd 2474 9e3d 4ab0 1a3e

bias f4 [60]
0.055308208 0.13365185 0.022509225 -0.04256942 0.13738132 -0.010669425 -0.05622786 0.10800227
-0.09092991 -0.08198406 0.059299767 -0.081661336 -0.01412625 0.08632657 -0.0065206112 0.096247606
-0.038657367 -0.23795536 -0.07079569 -0.0125686005 0.006972786 0.11783857 0.1940849 0.029919151
0.041749537 0.16419895 0.12452559 -0.13970429 0.07235115 0.054408263 0.091969445 -0.008521866
0.09103643 0.105487265 0.17345335 0.06047772 -0.0038558599 0.08494232 -0.112059936 -0.1013476
0.018148577 -0.04222498 0.13595629 0.11726071 -0.083283536 -0.065911084 -0.051780093 -0.082212545
-0.17262335 0.061023805 0.12277343 0.012272369 -0.054511093 0.0056432113 -0.22071446 0.13571332
-0.017881868 -0.078873366 -0.0953954 -0.060141195
00000000: dc8a 623d 08dc 083e 4465 b83c 465d 2ebd
00000010: b0ad 0c3e d0ce 2ebc 2f4f 66bd 4b30 dd3d
00000020: 7639 babd 42e7 a7bd 50e4 723d 0f3e a7bd
00000030: c971 67bc fccb b03d daaa d5bb 771d c53d
00000040: 3057 1ebd 92aa 73be 55fd 90bd 88ec 4dbc
00000050: f87b e43b 5955 f13d 31be 463e 0219 f53c
00000060: 9001 2b3d c523 283e 4607 ff3d a40e 0fbe
00000070: d72c 943d 33db 5e3d 7a5a bc3d 4c9f 0bbc
00000080: 4f71 ba3d b509 d83d c19d 313e 7cb7 773d
00000090: 98b2 7cbb 3df6 ad3d ae7f e5bd 558f cfbd
000000a0: 53ac 943c 1af4 2cbd 2038 0b3e 6226 f03d
000000b0: 8f90 aabd 64fc 86bd 5d17 54bd 0d5f a8bd
000000c0: 2dc4 30be 19f4 793d a370 fb3d 0c12 493c
000000d0: 0647 5fbd b0ea b83b f902 62be 6ff8 0a3e
000000e0: ff7c 92bc 5c88 a1bd aa5e c3bd 9d56 76bd

weight f4 [1, 60]
-1.1460146 1.1692455 -0.63363785 0.212498 -0.18407963 0.45348233 0.47709253 0.6452176
0.25049254 0.24619497 -1.0928444 -0.97497475 0.32405466 0.3799158 -0.43281144 0.21188225
0.4033044 1.154447 0.64019984 -0.47535163 0.6962693 -0.35605627 -0.64000237 0.31262147
0.59296584 -0.28984338 0.5292315 0.88893145 0.5104742 -0.35711884 -0.49105275 -0.53636783
-0.4042341 -0.25092897 -0.3394142 -0.26744363 0.30163768 -0.37551382 0.57519287 0.27330613
0.26606554 -0.59049034 -0.46453896 -0.5969039 -0.5044755 0.36174542 0.4501069 -0.2821191
0.43043974 0.43278843 -0.55103534 0.4652078 0.6291261 0.5377653 0.81986815 0.49460205
-0.7622091 -0.7687608 -0.33728474 0.6286688
00000000: 9bb0 92bf d6a9 953f 1736 22bf 1399 593e
00000010: 5f7f 3cbe d62e e83e 7945 f43e fb2c 253f
00000020: 8f40 803e 891a 7c3e 53e2 8bbf f297 79bf
00000030: 7eea a53e 5384 c23e 7699 ddbe a9f7 583e
00000040: ea7d ce3e ebc4 933f 23e4 233f 4a61 f3be
00000050: b43e 323f 024d b6be 32d7 23bf ec0f a03e
00000060: 9ccc 173f 5a66 94be b77b 073f 0391 633f
00000070: 70ae 023f 48d8 b6be 446b fbbe 674f 09bf
00000080: c6f7 cebe c379 80be b3c7 adbe 5fee 88be
00000090: 4170 9a3e 5943 c0be d73f 133f c8ee 8b3e
000000a0: be39 883e 602a 17bf 0dd8 edbe b2ce 18bf
000000b0: 4e25 01bf b236 b93e 6974 e63e ea71 90be
000000c0: 9962 dc3e 7296 dd3e a710 0dbf b72f ee3e
000000d0: 680e 213f fdaa 093f e1e2 513f 7b3c fd3e
000000e0: 2320 43bf 82cd 44bf 96b0 acbe 70f0 203f
